Part 2/Lab1/model/model.pth (torch, 587951 bytes, 10 tensors)

weight f4 [32, 3, 5, 5]
0	0x3c94dcf1	0.01817176
1	0xbd70fd4f	-0.058835324
2	0x3d92485b	0.07142707
3	0xbc3cb80e	-0.011518491
4	0xbd638746	-0.05554893
5	0x3d96b0c2	0.073579326
6	0x3ddb79a7	0.10716563
7	0xbdc07b23	-0.093984865
8	0xbd40d954	-0.04708226
9	0x3dd73a75	0.10509197
10	0xbde61de7	-0.11236172
11	0xbd2945d1	-0.041326348
12	0x3dad225d	0.0845382
13	0xbd5bb6e5	-0.05364122
14	0x3d571367	0.052508738
15	0xbcbb528d	-0.022866512
16	0xbd3f8b65	-0.046763796
17	0xbd77f196	-0.06053313
18	0xbbe13518	-0.0068727843
19	0xbe0904f3	-0.13380794
20	0x3b99946b	0.0046868823
21	0xbdcb9529	-0.099405594
22	0x3d2a492f	0.0415737
23	0xbdddc52a	-0.10828622
24	0xbd48052d	-0.04883306
25	0xbda2c5d9	-0.07947893
26	0x3d476350	0.048678696
27	0x3d72385d	0.059135783
28	0x3ceb521e	0.02872568
29	0x3d98c152	0.07458748
30	0xbd0602a6	-0.03271737
31	0xbdab59a1	-0.08366705
32	0x3db4e186	0.08832078
33	0xbafb7826	-0.0019185587
34	0xbd12ef43	-0.03587271
35	0xbd8a85c9	-0.06763799
36	0xbd8ecbff	-0.06972503
37	0xbce080a0	-0.027405083
38	0xbd7a17f4	-0.061058
39	0x3cb919bf	0.022595285
40	0xbd159290	-0.036516726
41	0xb90b466e	-0.0001328231
42	0xbe146a25	-0.14493616
43	0xbace70e2	-0.0015750194
44	0x3ccc0f55	0.024909655
45	0xbe3d200d	-0.18469258
46	0xbcacfa2e	-0.021115389
47	0xbe00316e	-0.12518856
48	0xbe0f3f9a	-0.13989106
49	0xbe22983f	-0.1587839
50	0xbd861ff1	-0.06549061
51	0x3d83a6bb	0.06428286
52	0x3db45d5a	0.08806868
53	0x3e1f0568	0.15529406
54	0x3e23878b	0.15969674
55	0x3e01c48a	0.1267263
56	0xbcd1103b	-0.025520435
57	0x3e3c8c4a	0.18412891
58	0x3dc8beee	0.09802042
59	0x3e0aab4c	0.13541907
60	0x3e155709	0.14583983
61	0x3d5f9a91	0.054590765
62	0x3db3001b	0.087402545
63	0x3e265113	0.16241865
64	0x3e08bb55	0.13352711
65	0x3dc23f82	0.094847694
66	0xbd146a09	-0.036233936
67	0x3d9834ae	0.07431923
68	0x3cc810f2	0.024422143
69	0xbcdf8206	-0.02728368
70	0xbdb31ecb	-0.08746108
71	0x3dca863e	0.09888886
72	0xbd75100a	-0.05982975
73	0x3d9ca6c8	0.076489985
74	0x3d7979d1	0.06090719
75	0xbd67bc82	-0.05657626
76	0x3bf2754c	0.007399237
77	0xbdded2a8	-0.10880023
78	0x3c684ce0	0.014178485
79	0x3dee63d5	0.11640135
80	0xbc877db4	-0.016539432
81	0xbe1ccd2a	-0.15312639
82	0xbc5babbf	-0.013407647
83	0xbceca574	-0.028887488
84	0x3c808c9d	0.01569205
85	0xbd323da8	-0.04351583
86	0xbe57d1b9	-0.21076097
87	0xbe80e612	-0.2517553
88	0xbe73a249	-0.23792376
89	0x3c91333f	0.017724631
90	0xbe118d7d	-0.1421413
91	0xbe1c3f2a	-0.1525847
92	0xbe04d258	-0.12970865
93	0xbda6c72a	-0.08143456
94	0xbe2e4bd5	-0.17021115
95	0xbd945dd6	-0.0724446
96	0xbc893b21	-0.016751828
97	0x3d16be39	0.036802504
98	0xbde75e06	-0.112972304
99	0x3ddb14a6	0.10697298
100	0x3e1c2230	0.15247416
101	0xbd287bb1	-0.041133586
102	0x3cebd70f	0.028789071
103	0xbdd134d3	-0.102151535
104	0xbbf4b2eb	-0.0074676177
105	0xbcffba49	-0.031216757
106	0x3d938bea	0.07204421
107	0x3c3261cc	0.010887574
108	0xbdaddb1a	-0.08489056
109	0xbd892f13	-0.06698432
110	0x3d10b6b6	0.035330497
111	0x3c8a6eae	0.01689848
112	0xbe3df0fa	-0.18548957
113	0xbdc3c458	-0.09558934
114	0xbd09b1b0	-0.03361672
115	0x3df917fe	0.12162779
116	0x3dcc8cf8	0.09987825
117	0xbe0af4b0	-0.13569903
118	0xbd6e85fc	-0.058233246
119	0xbe1c9fa3	-0.15295272
120	0x3cbae787	0.022815479
121	0x3e3cc41b	0.18434183
122	0x3d805bc3	0.06267502
123	0x3e054a76	0.13016686
124	0xbbb01868	-0.005374003
125	0x3dcfce2c	0.10146746
126	0x3e0fedc2	0.14055541
127	0x3e1de964	0.15421063
128	0xbd2e5994	-0.042565897
129	0x3e0edd05	0.139515
130	0x3dc48db1	0.09597338
131	0x3d18df0b	0.037322085
132	0xbd173ce9	-0.036923323
133	0xbca1f167	-0.01976843
134	0x3de0bc13	0.10973372
135	0x3dec47e8	0.115371525
136	0x3d309a25	0.043115754
137	0xbde7cd59	-0.11318464
138	0xbc86d678	-0.016459689
139	0xbbfef38f	-0.0077804993
140	0x3db19cac	0.08672461
141	0xbc3b0f50	-0.011417225
142	0x3da32798	0.07966536
143	0xbddaea31	-0.106892
144	0xbdacaecc	-0.08431777
145	0x3d0db2b6	0.03459426
146	0x3e436b71	0.19083954
147	0x3d6d3440	0.057911158
148	0x3c83fb38	0.016111001
149	0x3e211f1f	0.15734528
150	0x3db890e3	0.0901201
151	0xbd4d6630	-0.05014628
152	0x3dd2e2f9	0.10297198
153	0xbd88fe12	-0.06689085
154	0x3cebae78	0.028769717
155	0xbd9609a6	-0.07326059
156	0x3c7edefc	0.015556093
157	0x3cada1d9	0.021195339
158	0xbc697401	-0.014248849
159	0xbd724cb3	-0.059155177
160	0xbdcd74b5	-0.10032026
161	0xbe09cdff	-0.13457488
162	0xbe23eef1	-0.16009118
163	0xbdb4b48d	-0.088235
164	0xbd46b944	-0.048516527
165	0xbe33200e	-0.17492697
166	0xbd99e337	-0.07514041
167	0xbe25699f	-0.16153572
168	0xbe1520d0	-0.14563298
169	0x3d3fb2f6	0.04680153
170	0xbda3701f	-0.0798037
171	0x3cf0792f	0.02935466
172	0xbde53365	-0.11191443
173	0x3c4d2033	0.012519884
174	0x3c6aa94c	0.01432259
175	0xbc15b3b0	-0.009137079
176	0x3d2991d2	0.04139883
177	0x3cb0a918	0.021565005
178	0x3e0cfad4	0.13767558
179	0x3d9fccf9	0.07802767
180	0xbc211a8f	-0.009832992
181	0x3cac36bf	0.021022199
182	0x3dcbab9c	0.09944841
183	0x3e04653d	0.12929244
184	0xbdd59652	-0.10429062
185	0x3d643fb8	0.05572483
186	0xbdd5a718	-0.10432261
187	0x3d826bd4	0.06368223
188	0xbdd9ae54	-0.106289536
189	0x3ceb0c20	0.028692305
190	0x3d84d81a	0.064865306
191	0x3dd54ea7	0.10415392
192	0x3d066d49	0.032819066
193	0x3de04fbc	0.10952708
194	0x3d78c26a	0.060732283
195	0xbdb8aa64	-0.090168744
196	0x3de1db58	0.110281646
197	0xbd6e925b	-0.058245044
198	0xbd8516a6	-0.064984605
199	0x3da6dc29	0.08147461
200	0xbc16bc96	-0.009200236
201	0x3d1a53ba	0.037677504
202	0x3dc2bcf8	0.09508699
203	0x3df2b283	0.11850455
204	0x3da37f39	0.0798325
205	0x3dadac61	0.08480144
206	0x3d982008	0.074279845
207	0x3db585bd	0.08863399
208	0xbd2490d4	-0.04017718
209	0x3c570341	0.013123334
210	0xbd63590e	-0.05550485
211	0x3dfeaeed	0.12435708
212	0x3d9a8be6	0.07546215
213	0x3d021b6d	0.031764437
214	0xbdc1af64	-0.09457281
215	0xbd541c43	-0.051784765
216	0x3c8ad1c0	0.01694572
217	0xbd65832d	-0.056033302
218	0x3d8de731	0.06928862
219	0xbc0f50ef	-0.008747323
220	0x3d2713db	0.04079042
221	0x3dc7f1ab	0.097628914
222	0x3d367e59	0.04455409
223	0x3d9ad55f	0.075602286
224	0x3de4c080	0.11169529
225	0x3de75fb0	0.11297548
226	0x3e567e0c	0.2094652
227	0x3d48f366	0.049060248
228	0x3daf39fb	0.08555981
229	0x3d06f254	0.032945946
230	0x3e623763	0.22091441
231	0x3e69bdff	0.22826384
232	0x3e24b324	0.16083962
233	0x3e266901	0.16250993
234	0x3e23aa9e	0.15983054
235	0x3b9c2d4c	0.004766142
236	0x3d536332	0.051608272
237	0x3dc233dd	0.094825484
238	0xbd944a53	-0.07240739
239	0xbda4a1ef	-0.08038699
240	0xbe1abd46	-0.15111265
241	0xbd69067b	-0.056890946
242	0xbe063b07	-0.13108455
243	0xbe0513fe	-0.12995908
244	0x3c291ea2	0.010322245
245	0xbe0f40cb	-0.1398956
246	0xbe0bf536	-0.1366776
247	0xbdc9810d	-0.098390676
248	0x3d54dacf	0.051966485
249	0xbdfcd58a	-0.12345417
250	0x3dbdcae2	0.092672125
251	0xbda4e24a	-0.08050974
252	0x3d6622fc	0.056185707
253	0x3cb7d8fc	0.022442333
254	0xbc971b81	-0.018445732
255	0x3e1b5abf	0.15171336

bias f4 [32]
0	0xbddbb8c1	-0.107285984
1	0x3e3cb3f3	0.1842802
2	0xbde2d8d6	-0.110765144
3	0xbe373d98	-0.1789459
4	0x3e3b6a66	0.18302307
5	0xbc63b36d	-0.013897759
6	0xbeb846a3	-0.35991392
7	0xbd0efbae	-0.03490799
8	0x3cbb5849	0.022869246
9	0xbd06c292	-0.0329004
10	0x3dc13252	0.09433426
11	0xbad8d56e	-0.0016543099
12	0xbe103e5d	-0.1408629
13	0xbdfc67d8	-0.12324494
14	0xbc9658c0	-0.018352866
15	0x3a300c06	0.0006715659
16	0xbe5fcd26	-0.21855602
17	0xbc92047f	-0.01782441
18	0xbe73b211	-0.23798396
19	0xbe7dbc5f	-0.24778889
20	0xbd028658	-0.0318664
21	0x3e5555d3	0.2083352
22	0x3d5c7466	0.053821944
23	0xbd0dc0b3	-0.0346076
24	0xbe3a8994	-0.18216544
25	0x3c7cdbbc	0.015433248
26	0x3ee24aa4	0.4419757
27	0x3e0339cc	0.12815017
28	0x3d36bcb6	0.044613563
29	0x3dc4ea2b	0.096149765
30	0x3c2f06c0	0.010682762
31	0xbdeff6e7	-0.11717015

weight f4 [32, 32, 5, 5]
0	0x3c8ae331	0.016954036
1	0x3c618401	0.013764382
2	0xbc480d66	-0.012210226
3	0xbce3996c	-0.027783118
4	0xbc08e9c0	-0.008356512
5	0x3c5b26c1	0.013375939
6	0xbc0d9820	-0.008642226
7	0xbbca88c2	-0.0061808536
8	0xbd394e1c	-0.045240507
9	0xbcca11ec	-0.024666749
10	0x3c777a22	0.015104802
11	0xbca5029f	-0.020142851
12	0xbcca86c1	-0.024722459
13	0xbc966e6f	-0.018363206
14	0xbd084c98	-0.03327617
15	0xbc51cbfb	-0.01280498
16	0x3ccde38f	0.025132922
17	0xbd15cb98	-0.036571115
18	0xbd4bea3a	-0.049783923
19	0xbd5ac5e3	-0.053411376
20	0xbcc3d6ab	-0.023906073
21	0x3c8b79a0	0.017025769
22	0xbc076b2e	-0.0082653
23	0xbd2231c4	-0.03959824
24	0xbc5310c4	-0.012882415
25	0x3aa561f9	0.0012617699
26	0xbd7aeae7	-0.061259177
27	0xbcccf0c1	-0.025017144
28	0x3d4293ec	0.04750435
29	0x3ccc4f89	0.024940269
30	0x3c3c019e	0.011474995
31	0xbd62aa55	-0.055338223
32	0x38888918	6.510521e-05
33	0x3c575681	0.013143183
34	0x3cb37040	0.02190411
35	0xbc583fd4	-0.013198812
36	0xbc195874	-0.009359468
37	0xbd6a2713	-0.05716617
38	0xbc89d41f	-0.01682478
39	0x39a4d966	0.00031442492
40	0xbd0ce5ca	-0.03439883
41	0x3b6805de	0.0035403888
42	0xbd3fc1aa	-0.04681555
43	0xbca3bcd4	-0.019987501
44	0xbc32220b	-0.010872374
45	0xbbb75577	-0.005594905
46	0x39f4ef9e	0.00046717835
47	0x3b87580c	0.004130369
48	0xbbfb16c4	-0.007662626
49	0xbc1cc916	-0.009569427
50	0xbcd4eef7	-0.025992854
51	0xbc0bb87a	-0.008527869
52	0xbcf348e6	-0.029697847
53	0xbd40b63e	-0.0470488
54	0xbd49add0	-0.049238026
55	0xbce66d85	-0.028128395
56	0x3cc1a138	0.023636445
57	0x3c726220	0.014793903
58	0xbca8b094	-0.020592012
59	0xbcb40d22	-0.021978918
60	0xbd0e1eeb	-0.034697454
61	0x3cd11bee	0.025526013
62	0x3c8b4101	0.01699877
63	0x3c41672b	0.011804382
64	0x3b8e59b5	0.00434419
65	0xbc948eb4	-0.018134452
66	0xbd0db56d	-0.03459685
67	0xbc817e9d	-0.015807444
68	0xbd68cb11	-0.056834284
69	0xbd573f80	-0.052550793
70	0xbcfaf469	-0.030634122
71	0xbc76ab33	-0.0150554655
72	0xbca28d5f	-0.019842802
73	0xbb44cf3f	-0.0030030755
74	0xbce5e9ab	-0.028065523
75	0x3d4ccc02	0.049999245
76	0xbcca568c	-0.024699472
77	0xbcd9093b	-0.02649366
78	0xbc4d676b	-0.012536864
79	0x3c4ee31b	0.012627388
80	0xb8527a50	-5.0181814e-05
81	0x3cbd5477	0.023111565
82	0x3c98ef11	0.018668683
83	0xbceec8e0	-0.029148519
84	0x3c1d296f	0.009592398
85	0x3d02dacd	0.031946946
86	0xbba4d854	-0.005030671
87	0xbb337094	-0.0027380334
88	0x3a716f14	0.00092099723
89	0x3c815a74	0.015790202
90	0xbc831b6f	-0.016004292
91	0xbcfcfd48	-0.030882493
92	0x3c10dab2	0.0088412035
93	0xbb7eb93e	-0.0038867737
94	0x3d020420	0.031742215
95	0x3b2211a4	0.0024729753
96	0xbd36fad1	-0.04467279
97	0xbc2272b9	-0.009915047
98	0x3c91fc9d	0.01782065
99	0x3c07221f	0.008247881
100	0xbce354e7	-0.027750446
101	0xbd09c313	-0.033633303
102	0xbc4d6c3d	-0.012538013
103	0xbc84ee28	-0.016226843
104	0x3d22c502	0.039738663
105	0xbd66bf05	-0.056334514
106	0xbd99a50e	-0.07502185
107	0xbd0dabb2	-0.03458757
108	0xb98673a3	-0.00025644628
109	0x3ce977db	0.028499534
110	0xbcbb4136	-0.022858243
111	0xbcd54ad7	-0.026036663
112	0xbbd3c323	-0.006462471
113	0xbc84e0b4	-0.016220428
114	0x3c35433c	0.011063393
115	0xbc73b917	-0.014875672
116	0xbc699133	-0.01425581
117	0xbbeb9592	-0.007189461
118	0xbb38efdb	-0.0028219137
119	0x3d2c567b	0.04207466
120	0xbb55269c	-0.0032524234
121	0xbd0239ab	-0.031793278
122	0xbcafb486	-0.021448385
123	0x3ce2d17b	0.027687779
124	0x3d09e7fb	0.0336685
125	0x3d02fb9c	0.031978235
126	0x3d144a44	0.036203638
127	0x3cb59e38	0.022170171
128	0xbc04353b	-0.008069332
129	0xbc6fd40d	-0.014637959
130	0xbb35b731	-0.0027727599
131	0x3ccaea39	0.02476989
132	0xbc6266d2	-0.01381846
133	0x3d08b06a	0.033371367
134	0x3bdcf012	0.006742486
135	0xbc0624cd	-0.008187485
136	0x3d179163	0.037003886
137	0x3d01192a	0.03151814
138	0xbc6f7180	-0.014614463
139	0x3ca18e3f	0.019721149
140	0xbc2ef1b2	-0.010677742
141	0xbc298675	-0.010346998
142	0xbc9a2d1d	-0.01882034
143	0xbc417340	-0.011807263
144	0xbccc9452	-0.024973068
145	0xbc4bb0d9	-0.0124323005
146	0xbd640b73	-0.05567498
147	0x3c2426e5	0.010019039
148	0xbd0b623f	-0.03402924
149	0xbd2f24da	-0.042759754
150	0xbb15d73d	-0.0022863888
151	0x3ba4c5e6	0.005028474
152	0x3cb81bde	0.022474226
153	0x3c243e09	0.010024556
154	0xbc629240	-0.013828814
155	0xbc725ca3	-0.014792594
156	0xba6f0680	-0.0009118095
157	0xbbdca311	-0.006733306
158	0x3c0d49e6	0.008623576
159	0xbc524322	-0.0128333885
160	0xbc8d08cf	-0.017216114
161	0x3c8a5548	0.016886368
162	0xbcf7252f	-0.030169098
163	0xbc4cd162	-0.012501093
164	0x3c5c812b	0.01345853
165	0x3cd63f2f	0.026153175
166	0x386c46d4	5.633275e-05
167	0x3c6cf35e	0.01446232
168	0xbd2676c5	-0.04064061
169	0xbbeb3dc2	-0.007178993
170	0x3d19f479	0.037586663
171	0x3a4730c5	0.0007598515
172	0xbb17bd32	-0.002315354
173	0x3b587dc5	0.003303395
174	0xbb7133d7	-0.003680458
175	0xbc8bec2f	-0.017080395
176	0xbcdb9044	-0.02680219
177	0xbcbb1582	-0.022837404
178	0x3d4712fb	0.048602086
179	0x3c48f739	0.012265974
180	0xbd291dc2	-0.041288145
181	0xbd58311b	-0.052781206
182	0x3b59f8f3	0.0033259958
183	0x3cf46cca	0.02983703
184	0x3c9ae33e	0.018907186
185	0xbced956f	-0.02900192
186	0xbc93a611	-0.018023523
187	0xbc7e9221	-0.0155377695
188	0xbc866bd5	-0.01640884
189	0x3aa4390f	0.0012529212
190	0xbcb16fca	-0.02165975
191	0xbce1d876	-0.027569037
192	0xbc29d0d7	-0.010364733
193	0xbaaa04fe	-0.0012971458
194	0x3d459070	0.04823345
195	0x3d02bad5	0.03191646
196	0xbb8d74b0	-0.0043168887
197	0x3bc92154	0.006138006
198	0x3d267f34	0.040648654
199	0x3d4ca86f	0.04996532
200	0x3b6a8f91	0.0035791139
201	0xbc1e4930	-0.009661004
202	0x3cecf8ac	0.02892717
203	0xbd39d8f3	-0.045372915
204	0xbc2ff572	-0.010739671
205	0x3b4b15bd	0.0030988299
206	0x3ce6301b	0.02809911
207	0xbb943834	-0.0045233015
208	0xbb18b11d	-0.0023298927
209	0xbc00893e	-0.007845221
210	0xbc6b1a81	-0.014349581
211	0x3c8f54c9	0.017496483
212	0xbcfbdda5	-0.030745337
213	0x3aa2e83a	0.0012428828
214	0xbc2fc444	-0.010727946
215	0x3c5cc718	0.013475202
216	0x3c863ccd	0.016386414
217	0x3cbc4e3b	0.022986522
218	0xbcf0c9da	-0.029393125
219	0xbb3373fb	-0.0027382362
220	0xbd3ffe44	-0.046873346
221	0xbc936b6b	-0.017995557
222	0x3c934da5	0.01798136
223	0xbc9bfc61	-0.019041242
224	0xbd15b8f8	-0.036553353
225	0x3d0abd30	0.03387183
226	0x3c072dcd	0.008250666
227	0xbd2ad6ae	-0.04170864
228	0xbd129ad9	-0.035792205
229	0x3c32c001	0.010910035
230	0x3c11c0dd	0.00889608
231	0x3d299131	0.04139823
232	0xbcaddc17	-0.021223111
233	0xbd981d93	-0.07427516
234	0xbc3144ba	-0.010819608
235	0x3c76406f	0.015030011
236	0x3caef8ce	0.021358874
237	0xbc9f19e0	-0.019421518
238	0xbd26cb1b	-0.04072104
239	0xbc9d326f	-0.019189088
240	0xbcd6e50f	-0.02623227
241	0x3c50f38a	0.012753377
242	0x3cb08090	0.021545678
243	0xbc7ea8f3	-0.01554321
244	0x3c594d92	0.013263123
245	0x3ce3085a	0.027713943
246	0xbbe2aba5	-0.0069174343
247	0xbc5e5ea1	-0.013572366
248	0xbccf44a1	-0.02530128
249	0xbd4fbf7d	-0.050719727
250	0x3c2bf847	0.010496206
251	0x3c151c8f	0.009101047
252	0x3ce2af10	0.027671367
253	0x3d1aa745	0.037757177
254	0x3d353cea	0.044247545
255	0xbc64c139	-0.0139620835

bias f4 [32]
0	0xbd52481d	-0.051338304
1	0xbde149b6	-0.11000387
2	0xbd600c79	-0.054699395
3	0xbdc1c14d	-0.09460697
4	0xbdd9dd3d	-0.10637901
5	0xbd3c9f5b	-0.04605041
6	0x3c42c0d8	0.011886798
7	0xbd850895	-0.064957775
8	0x3cdd270f	0.026996164
9	0xbdec25c3	-0.1153064
10	0xbdbb33e7	-0.09140759
11	0x3c3d1eb8	0.011542968
12	0xbd5f8c20	-0.054576993
13	0xbdaa49cc	-0.08314857
14	0xbe1caaa7	-0.15299474
15	0xbdb58edd	-0.0886514
16	0xb9376e88	-0.00017493416
17	0xbd628f46	-0.055312417
18	0xbc6eaa0c	-0.0145669095
19	0xbc8985bc	-0.016787402
20	0xbc2a2f3e	-0.01038724
21	0xbd1a19ee	-0.037622385
22	0x3d13fed0	0.03613168
23	0x3cdae3ec	0.02672001
24	0x3ca1d97e	0.019757029
25	0xbdda9551	-0.10673011
26	0xbd0773eb	-0.033069532
27	0x3d4b2c50	0.049602807
28	0x3d410cc1	0.047131304
29	0xbcc32e27	-0.023825718
30	0xbc24eeae	-0.010066671
31	0x3e08b689	0.13350882

weight f4 [64, 32, 5, 5]
0	0xbc0566fd	-0.00814223
1	0xbd5387ab	-0.051643055
2	0xbc37a799	-0.011209392
3	0xbcb0b6ec	-0.021571599
4	0x3cd46f67	0.025932027
5	0xbd26a397	-0.040683355
6	0xbd015a51	-0.031580273
7	0x3ca55c83	0.020185715
8	0xbd0bb7f3	-0.034110975
9	0x3ba27617	0.004957925
10	0xbaee37f4	-0.0018174634
11	0x3d082048	0.03323391
12	0xbd14180e	-0.036155753
13	0x3cc3fc8e	0.023924138
14	0xbc45c35b	-0.012070502
15	0xbd0389c1	-0.032113794
16	0x3c7d97db	0.0154781
17	0xbb6e1794	-0.0036329972
18	0xbc1dbad6	-0.009627065
19	0xbce815d0	-0.028330714
20	0xbbeeb121	-0.007284299
21	0x3ca2b9f0	0.019864053
22	0x3b93ba42	0.0045082876
23	0xbbbe64b2	-0.0058103437
24	0xbbee4faa	-0.0072726803
25	0xb90b1e6b	-0.00013267405
26	0xbc2acaf3	-0.010424363
27	0x3c98a158	0.018631622
28	0xbccf4f5f	-0.025306402
29	0xbc4f666f	-0.012658699
30	0xbc5da7ad	-0.013528747
31	0xbc72cac8	-0.014818855
32	0xbc27fdb6	-0.0102533605
33	0x3c921530	0.017832369
34	0x3d010c66	0.031505965
35	0x37db11e8	2.6115173e-05
36	0x3cb5d82b	0.022197803
37	0xbd06d743	-0.032920133
38	0xbd18cba3	-0.037303578
39	0xb9e614cc	-0.00043884513
40	0xbb8b6949	-0.0042544943
41	0x3cc26011	0.023727449
42	0xbcebea1c	-0.028798155
43	0x3c8c0eff	0.017096994
44	0xbcff296e	-0.031147685
45	0xbc8d5914	-0.01725439
46	0xbc86454f	-0.01639047
47	0x3c48ff54	0.012267906
48	0x3c9f34ca	0.019434351
49	0xbc2250af	-0.009906932
50	0x3c50fb1c	0.012755182
51	0xbcc48767	-0.023990346
52	0xbc869f2d	-0.016433323
53	0x3c48434d	0.012223077
54	0xbb98d610	-0.00466419
55	0xbcd7dd38	-0.026350603
56	0xbcd211b1	-0.025643202
57	0xbd09b6e5	-0.033621687
58	0xbce6ee16	-0.0281897
59	0x3cbaf665	0.022822568
60	0xbcdc93cb	-0.026925942
61	0x3c5518b5	0.013006379
62	0x3c630189	0.0138553465
63	0xbcc58660	-0.024111927
64	0xbb7917be	-0.0038008536
65	0x3a56c3c9	0.00081926264
66	0xbaa4e3ad	-0.001258006
67	0xbd05ead8	-0.032694668
68	0xbd436421	-0.047702912
69	0xbd143484	-0.036182895
70	0xbb0bc131	-0.0021324868
71	0x3c8fc85e	0.017551597
72	0x3b417b86	0.0029523089
73	0x3c4c6903	0.012476209
74	0xbcc5cd6f	-0.02414581
75	0xbca76c7a	-0.020437468
76	0xbcc29de3	-0.023756927
77	0xbd212954	-0.039346054
78	0x3b85137a	0.0040611597
79	0x3cd5a664	0.026080318
80	0xbc67b2c7	-0.014141745
81	0x3ce14628	0.027499273
82	0xbce7c1c4	-0.028290637
83	0xbbafdb80	-0.0053667426
84	0xbcc73f5b	-0.024322202
85	0x3cb2e4c5	0.021837601
86	0x3c12519f	0.008930593
87	0xbc0350b6	-0.008014848
88	0x3d169fc9	0.036773477
89	0xbca02da1	-0.019553008
90	0xbc852333	-0.016252136
91	0x3c732912	0.014841335
92	0x3b6c348d	0.0036042065
93	0xbce6a566	-0.02815504
94	0x3b59c97c	0.0033231666
95	0xbcc9dfd5	-0.024642864
96	0xba8719ea	-0.0010307406
97	0xbc9a1e2e	-0.018813219
98	0x3baec871	0.005333953
99	0x3c09996d	0.008398396
100	0x3ce1a40c	0.027544044
101	0xbc3e4d92	-0.011615174
102	0x3c6c3e34	0.014419127
103	0xbc887b7d	-0.016660446
104	0x3af422a9	0.0018626052
105	0xbba3e284	-0.005001368
106	0x3d060166	0.032716177
107	0x3c4a329a	0.012341166
108	0x3af2c614	0.0018522167
109	0x3cdf4601	0.02725506
110	0xb973c4a7	-0.00023247545
111	0x3d3afd3f	0.04565167
112	0x3bd55fa5	0.006511646
113	0x3bca85a7	0.0061804834
114	0x3d3c5dd8	0.045987934
115	0x3c79bdbf	0.015242993
116	0xbd037a21	-0.032098893
117	0xbc0d1b08	-0.008612402
118	0xbbbb7eab	-0.005721887
119	0x3c6b0eda	0.014346803
120	0x3bc98622	0.006150023
121	0xbc221a90	-0.009894028
122	0x3baa5ccc	0.0051990505
123	0xbce742e3	-0.028230136
124	0x3d0b3cd3	0.033993553
125	0xbc5a1cd0	-0.0133125335
126	0xbd00babd	-0.031428088
127	0xbd2701d5	-0.04077323
128	0x3c1cf85d	0.009580699
129	0x3c5054e7	0.012715555
130	0x3d003fbc	0.03131078
131	0x3d4a3863	0.04937018
132	0x3cf8b741	0.03036082
133	0xbd0a8873	-0.033821534
134	0xbc7f9e17	-0.015601656
135	0xbca6d1b8	-0.020363674
136	0x3cd415f0	0.025889367
137	0x3b54d4f1	0.0032475556
138	0xbc977fb8	-0.018493518
139	0xba4cc7d8	-0.00078117615
140	0xbd12ff73	-0.035888147
141	0x3c88da82	0.016705755
142	0xbc0778c2	-0.008268537
143	0x3baa3e02	0.00519538
144	0xbb96e75c	-0.004605217
145	0xbd4d7afe	-0.050166123
146	0xbcd8adc4	-0.026450045
147	0x3c8067fc	0.015674584
148	0xbd06a2ca	-0.03287009
149	0x3cc34380	0.023835897
150	0xba096eeb	-0.00052426633
151	0x3ca0aaac	0.019612633
152	0xbc8d1844	-0.017223485
153	0x3c06d8f7	0.008230439
154	0xbc624a73	-0.013811695
155	0x3ce9acd2	0.02852479
156	0xbc90f572	-0.017695162
157	0xbb89de2f	-0.0042073946
158	0x3bbbe886	0.005734506
159	0x3d17f68d	0.037100364
160	0xbae27c9e	-0.001727957
161	0x3b39e347	0.0028364228
162	0xbb4d44cf	-0.003132153
163	0x3d28dd7e	0.041226856
164	0xbc22fc7d	-0.009947893
165	0x3c6d90b8	0.014499836
166	0x3c40e258	0.011772715
167	0xbc63c138	-0.013901047
168	0x3af69f60	0.0018815808
169	0xbca10011	-0.019653352
170	0xbb273d64	-0.002551877
171	0x3bbe3c83	0.0058055534
172	0xbd426bc1	-0.047466043
173	0xbd2413b7	-0.040057864
174	0xbd037f7d	-0.032104004
175	0x3cf59863	0.02997989
176	0x3cb03875	0.021511296
177	0xbc193303	-0.009350541
178	0x3c10b472	0.008832084
179	0xbc54b4d2	-0.012982564
180	0xbd0b4d43	-0.03400923
181	0xbd0b0f50	-0.03395015
182	0x3ceded68	0.029043868
183	0xbb83c5a9	-0.0040213657
184	0xbd261179	-0.040544007
185	0xbc834c21	-0.016027512
186	0xbc31db10	-0.010855451
187	0xbc82c090	-0.015960962
188	0xbcba5311	-0.022744687
189	0x3af2c184	0.0018520807
190	0xbc860230	-0.016358465
191	0x3cae171a	0.02125125
192	0x3bd4bec8	0.0064924695
193	0x3bd526e0	0.0065048784
194	0xbc1b63ad	-0.009484214
195	0xbd044f5c	-0.032302245
196	0xbcefa76d	-0.02925464
197	0xbcae26a7	-0.021258665
198	0x3cd14c27	0.025549008
199	0x3c03fd21	0.008055956
200	0x3c0d7ac9	0.008635231
201	0x3cd12af5	0.025533179
202	0x3cc38605	0.023867616
203	0x3d612989	0.05497125
204	0x3cac4d5b	0.02103298
205	0xbc27e2cd	-0.010246945
206	0x3cf1a811	0.029499086
207	0x3bcce35e	0.00625269
208	0x3d3e7ec2	0.046507604
209	0xbb9dc794	-0.0048150513
210	0x3cbdb0db	0.02315562
211	0x3bd88adc	0.00660835
212	0x3c3f4271	0.011673556
213	0x3d505eaa	0.05087153
214	0x3bc57f18	0.0060271136
215	0x3bacf5fa	0.005278346
216	0x3bf470a6	0.007459718
217	0xbd1ef16c	-0.038804457
218	0x3c3947be	0.011308609
219	0xbc2abfd8	-0.010421716
220	0xbccd9cda	-0.025099207
221	0x3c4f13a1	0.012638957
222	0xbc6b0b3a	-0.014345938
223	0xbc0295ac	-0.007970255
224	0xbaa3460f	-0.0012456792
225	0xbcb56a5e	-0.022145446
226	0x3b08b56f	0.0020860096
227	0x3ae2855f	0.0017282179
228	0xbba6b89d	-0.0050879256
229	0x3d3b8ead	0.045790363
230	0x3c2d68b6	0.010584047
231	0x3c5edbb0	0.013602182
232	0xbca5096a	-0.02014609
233	0xbcea0240	-0.028565526
234	0x3cee14ee	0.029062714
235	0x3c81972c	0.015819155
236	0xbcfe14ec	-0.031015836
237	0x3c2863cd	0.010277701
238	0xbd4d8ec0	-0.050184965
239	0xbc66d7c0	-0.014089525
240	0x3c7126b6	0.014718702
241	0xbc935d91	-0.017988952
242	0xbd4629d5	-0.048379738
243	0xbb53a9b2	-0.0032297191
244	0xbcee8af2	-0.029118989
245	0xbba09db2	-0.0049016112
246	0x3acba754	0.0015537539
247	0xbba15d4a	-0.004924451
248	0xbd1a8159	-0.03772101
249	0xbcc2a8e3	-0.023762172
250	0x3b39266c	0.002825166
251	0x3c80c5dd	0.015719349
252	0x3c99f6be	0.018794414
253	0x3b68e821	0.003553875
254	0x3c056a0a	0.008142957
255	0x3c58c2f9	0.013230079

bias f4 [64]
0	0x3cd9c71d	0.026584202
1	0xbdbcbd02	-0.09215738
2	0x3cb35e59	0.021895574
3	0xbc13a562	-0.009011598
4	0x3d01fdda	0.031736232
5	0xbd33b456	-0.043873154
6	0xbc96c45d	-0.01840418
7	0xbca7cc92	-0.020483289
8	0x3bb8144f	0.0056176553
9	0xbc447a53	-0.011992055
10	0xbd7c9255	-0.06166299
11	0xbc9a4e46	-0.018836152
12	0xbc80110c	-0.015633129
13	0xbdf1d60d	-0.11808405
14	0xbd614b00	-0.055003166
15	0xbcabd0c7	-0.020973576
16	0xbd544fef	-0.051834043
17	0xbcec32b5	-0.028832773
18	0x3ba58ddd	0.005052312
19	0xbd8025d7	-0.062572174
20	0xbaa31858	-0.0012443168
21	0xbd3972df	-0.045275565
22	0xbc4260a7	-0.011863864
23	0x3c349896	0.011022707
24	0x3bbc964f	0.005755223
25	0xbd60329b	-0.05473576
26	0x3c283131	0.010265634
27	0xbcf24f24	-0.029578753
28	0xbd2374e2	-0.03990639
29	0xbd8c660e	-0.06855403
30	0xbd8f79ff	-0.07005691
31	0xbd1487d8	-0.036262363
32	0xbd0ad510	-0.0338946
33	0xbb919308	-0.0044425763
34	0xbcb592e2	-0.022164766
35	0xbd53859c	-0.05164109
36	0x3c034e37	0.008014253
37	0xbc1bd9f6	-0.009512415
38	0xbd81d734	-0.06339875
39	0xbcc75027	-0.024330212
40	0xbd49ac6f	-0.04923671
41	0xbd8498c6	-0.06474452
42	0xbd6e9d6b	-0.058255594
43	0xbbfd9d79	-0.0077397195
44	0xbd05b42a	-0.03264252
45	0xbd2d70ed	-0.042344023
46	0xbce4c245	-0.027924666
47	0xbd8defca	-0.06930502
48	0xbc5b6501	-0.01339078
49	0xbcfe6bab	-0.0310572
50	0x3cb8600e	0.02250674
51	0x3c51cf66	0.012805795
52	0xbd05aede	-0.03263747
53	0x3ba28ea5	0.004960852
54	0x3c87127c	0.016488306
55	0xbd6553d8	-0.055988163
56	0x3c9e750e	0.019342925
57	0xbc1b2322	-0.0094688255
58	0xbc718daf	-0.014743253
59	0x3ca7b424	0.02047164
60	0xbce3a911	-0.027790578
61	0xbcfa64b8	-0.030565605
62	0xbc20ad46	-0.009806937
63	0x3ccf2238	0.025284871

weight f4 [64, 1024]
0	0x3cd38b7e	0.025823351
1	0xbc2fcf10	-0.01073052
2	0x3ce44054	0.027862705
3	0xbcf5ecac	-0.03002008
4	0x3cf7b164	0.030235954
5	0x3c947a22	0.018124644
6	0xbc0dc54f	-0.008652999
7	0x3c4b9840	0.012426436
8	0x3cf4645c	0.029833011
9	0xbc922ac0	-0.01784265
10	0xbcab0f3d	-0.02088129
11	0x3d2ef83e	0.04271721
12	0x3c8ff848	0.017574444
13	0xbc621939	-0.013799959
14	0x3d30b56b	0.043141764
15	0xbca35726	-0.019939017
16	0x3d1c8e88	0.038221866
17	0xbd293e9f	-0.041319486
18	0xbca85582	-0.020548586
19	0x3c987783	0.018611675
20	0x3b0e3902	0.002170146
21	0xbacc5fde	-0.0015592535
22	0xbc878118	-0.016541049
23	0x3cbb60ff	0.0228734
24	0xbc7f0cee	-0.0155670475
25	0x3c90fc28	0.017698362
26	0xbc8bbcb5	-0.017057756
27	0xbc232683	-0.009957912
28	0xbbb7a578	-0.005604442
29	0xbc62b3f5	-0.01383685
30	0xbd35d67e	-0.04439401
31	0xbb96a62a	-0.004597445
32	0xbcc80c0c	-0.024419807
33	0xbc14e369	-0.009087422
34	0xbd258e3b	-0.040418845
35	0x3c887143	0.01665557
36	0x3d01727a	0.031603314
37	0xbc8b1d7f	-0.016981838
38	0x3cd8eb6b	0.026479444
39	0xbb6d22f7	-0.003618417
40	0xbca00f0e	-0.019538429
41	0x3ba3ae4c	0.004995143
42	0x3cec25ec	0.028826676
43	0x3cf95f78	0.03044103
44	0x3ccd7582	0.025080446
45	0x3b8e9a65	0.0043519014
46	0x3d16dc20	0.03683102
47	0x3b6bfe2f	0.003600966
48	0x3ccaf425	0.02477462
49	0xbc2e3a9a	-0.010634089
50	0xbd31614b	-0.043305676
51	0xbc8a8d27	-0.01691301
52	0xbc474c47	-0.012164182
53	0x3d1deecb	0.03855781
54	0x38d7ea6c	0.000102956634
55	0x3cd556b1	0.026042314
56	0xbbbf68fa	-0.0058413716
57	0x3d350451	0.04419357
58	0x3d291160	0.041276336
59	0x3cbb4ad0	0.022862822
60	0xbbe75917	-0.007060181
61	0x3d1fff9a	0.03906212
62	0x3b19f1d6	0.0023490093
63	0x3d1c591f	0.03817093
64	0xbcd28153	-0.025696432
65	0x3be508d8	0.0069895796
66	0xbcdda04d	-0.027053976
67	0xbc0f315e	-0.008739797
68	0xbd29455c	-0.041325912
69	0x3c453c21	0.012038262
70	0xbcd3ace3	-0.025839275
71	0xbc6c7691	-0.014432565
72	0x3cd4688e	0.025928762
73	0x3d11ad75	0.035565812
74	0x3cc756ee	0.024333443
75	0x3cd79b73	0.026319241
76	0x3bc6ede1	0.006070838
77	0x3c81fe6d	0.01586839
78	0xbbe6a8f5	-0.007039184
79	0xbc4e09fd	-0.012575624
80	0x3cba9510	0.022776157
81	0x3c08cabb	0.008349116
82	0xbbe9838b	-0.007126277
83	0x3d1a162d	0.037618805
84	0xbd016c39	-0.03159735
85	0xbd3013a0	-0.042987466
86	0xbc6895be	-0.014195858
87	0x3c775082	0.015094878
88	0xbcd9fbec	-0.026609384
89	0xbc6716bb	-0.01410454
90	0x3b530fe7	0.0032205523
91	0xbc38b921	-0.011274607
92	0xbb5eeccf	-0.003401566
93	0x3b34a01f	0.002756126
94	0xbbf52a59	-0.007481855
95	0xbc12507c	-0.008930322
96	0x3c0057d3	0.007833439
97	0x3bd26351	0.006420531
98	0x3c345520	0.0110066235
99	0x3c9a490e	0.018833663
100	0xbce2364e	-0.027613785
101	0x3bca755e	0.006178542
102	0x3adc8e22	0.0016827027
103	0xbba3fd74	-0.005004579
104	0xbc89293d	-0.016743297
105	0xbc199676	-0.009374252
106	0xbc4e92dc	-0.012608256
107	0xbc739e04	-0.014869217
108	0x3ca0e121	0.0196386
109	0x3cf56f65	0.029960344
110	0xbcd53f2a	-0.026031096
111	0xbd1edbe8	-0.038783938
112	0xbc4b65ae	-0.012414379
113	0xbcb7b204	-0.022423752
114	0x3bd01e66	0.00635128
115	0xbbdc72a2	-0.0067275325
116	0x3c5cc9ea	0.013475874
117	0x3c8a4fc9	0.016883748
118	0x3ba5406b	0.0050430796
119	0x3c452a40	0.012033999
120	0xbd72a9c7	-0.059243944
121	0x3c8703ec	0.016481362
122	0x3ba09c9d	0.0049014823
123	0x3c2a8b41	0.010409177
124	0x3d031613	0.032003473
125	0xbc38a4da	-0.011269772
126	0x3c915dbf	0.017744897
127	0x3d1d5d3c	0.038418993
128	0x3d148402	0.036258705
129	0xbd1776cb	-0.036978524
130	0xbd6a1e65	-0.057157893
131	0xbc3e317e	-0.01160848
132	0x3ce0ab51	0.02742544
133	0x3c9a6f7e	0.018851992
134	0xbd1b1a2d	-0.03786676
135	0xbc9ef0a8	-0.019401863
136	0xbc0be211	-0.008537785
137	0x3cb4319c	0.021996312
138	0x3d7aa828	0.061195523
139	0x3c08a7aa	0.0083407555
140	0x3d1bb52e	0.038014583
141	0xbcb9913c	-0.022652261
142	0x3c9f7527	0.019465042
143	0xbccd7ecc	-0.025084876
144	0xbcb29843	-0.02180112
145	0xbd202fe1	-0.03910816
146	0x3b1b7d11	0.0023725668
147	0x3b810ea6	0.003938514
148	0x3bdf16e2	0.0068081478
149	0x3b085bcd	0.002080667
150	0x3c82ae2c	0.015952192
151	0xbd3996f3	-0.045309972
152	0x3cadca4b	0.021214625
153	0x3cb66c31	0.022268387
154	0xbd2165c7	-0.039403703
155	0xbb8eda05	-0.004359486
156	0x3cb60c4a	0.022222657
157	0x3d35b5da	0.04436288
158	0x3d142542	0.036168344
159	0x3b38e1a2	0.002821066
160	0xbcbf9e3c	-0.023390882
161	0xbd456566	-0.048192404
162	0xbc1e9cfc	-0.009680983
163	0xbb48204e	-0.0030536833
164	0x3c32382d	0.010877651
165	0xbb7137ae	-0.003680687
166	0x3ca8ae34	0.020590879
167	0xbca9a861	-0.020710172
168	0xbd70be0b	-0.05877499
169	0xbd51ab3a	-0.051188685
170	0xbd690446	-0.05688884
171	0x3b564c69	0.0032699353
172	0x3c002dce	0.007823421
173	0x3d0cd148	0.034379274
174	0x3d5b488e	0.05353599
175	0x3bad346c	0.00528579
176	0xbcd65cd7	-0.026167316
177	0x3c8ef765	0.017451951
178	0xbc10ff7b	-0.008849974
179	0xbc4fc962	-0.012682291
180	0x3cdb71dc	0.02678769
181	0x39bbfd77	0.00035856265
182	0xbc8d319d	-0.017235572
183	0x3c651597	0.013982198
184	0x3c03f58f	0.008054151
185	0x3d0b2d7c	0.033978924
186	0xbd0b77bf	-0.034049746
187	0xbc6ad5f3	-0.014333236
188	0x3ca2a864	0.019855686
189	0x3b682e0e	0.0035427841
190	0x3d06fab1	0.03295392
191	0x3cb572e8	0.022149518
192	0x3bc224e3	0.0059248074
193	0xbc06f286	-0.008236533
194	0x3c09c936	0.008409789
195	0x3c6f8b30	0.014620587
196	0xbbafdda0	-0.005366996
197	0xbb0e5b03	-0.0021721728
198	0x3b86ea41	0.0041172807
199	0xbc19dba2	-0.009390743
200	0xbcc7e40f	-0.024400739
201	0xbcb122e2	-0.021623079
202	0xbd214423	-0.03937162
203	0xbb65ec63	-0.0035083524
204	0xbd065bb7	-0.03280231
205	0x3cb0689b	0.021534255
206	0x3b1d0d65	0.0023964283
207	0xbb9b60b3	-0.004741752
208	0x3ab18428	0.0013543414
209	0xbd162da0	-0.036664605
210	0xbd0dee0c	-0.034650847
211	0x3c702851	0.01465805
212	0xbd06a2f5	-0.03287025
213	0xbd0c551b	-0.03426085
214	0xb8bed561	-9.099651e-05
215	0xbcf2922a	-0.029610712
216	0x3b9c02f9	0.0047610966
217	0xbbc3ba95	-0.00597317
218	0x3b00faad	0.0019680664
219	0x3c048fc0	0.008090913
220	0xbc90e2ea	-0.017686326
221	0x3adb7eda	0.0016746179
222	0x3bc4dab8	0.0060075186
223	0x3bebbad6	0.0071939034
224	0x3a2d11e5	0.0006602093
225	0x3cab8910	0.02093938
226	0xbc7afb0e	-0.015318645
227	0xbbdc9d9d	-0.006732656
228	0xbce31290	-0.027718812
229	0x3a10a6ad	0.00055180007
230	0x3cd80cd3	0.026373303
231	0xbc7d367c	-0.015454885
232	0x3c652bae	0.013987465
233	0x3ceb11dd	0.028695041
234	0x3d3176be	0.043326132
235	0x3cee8448	0.029115811
236	0xbc8c6977	-0.017140133
237	0x3be4f487	0.0069871577
238	0x3cd7b3de	0.026330885
239	0x3d4f7e15	0.05065735
240	0x3cc85abe	0.024457332
241	0x3cb6de9a	0.022322942
242	0xbcdd1fbe	-0.026992675
243	0xba75b8fc	-0.0009373573
244	0xbc910f62	-0.01770753
245	0x3c847bdb	0.01617234
246	0x3c5db082	0.013530852
247	0x3c68c21a	0.014206434
248	0xbba5d78d	-0.005061096
249	0xbc440f26	-0.011966502
250	0x3cf18943	0.029484397
251	0xbd09d54e	-0.03365069
252	0xbc7f779c	-0.015592482
253	0x3cc53252	0.024071846
254	0x3caf9499	0.021433162
255	0x3c9ac1c8	0.01889123

bias f4 [64]
0	0xbb66f5f7	-0.0035241821
1	0x3c178bc7	0.009249634
2	0x3c445c4f	0.011984899
3	0xbced6ef0	-0.028983563
4	0x3c847214	0.016167678
5	0xbc083b19	-0.008314871
6	0x3c03ba0e	0.008039964
7	0x3ce0361b	0.02736955
8	0x3c740f66	0.014896249
9	0x3d33aeae	0.04386776
10	0x3cc62e08	0.024191871
11	0xbd4a4cc9	-0.049389634
12	0x3d049239	0.03236601
13	0x3d23ab0f	0.039958056
14	0x3d447d0e	0.047970824
15	0xbc3dfd53	-0.011596042
16	0xbcf245d6	-0.029574316
17	0xbc627c95	-0.013823648
18	0x3c08b0fd	0.008342979
19	0xbc39f895	-0.0113507705
20	0x3d084e2f	0.033277687
21	0xbcb874a8	-0.022516564
22	0x3c720616	0.014771959
23	0x3c954d5a	0.01822536
24	0x3c919cf5	0.017775038
25	0x3d80cccf	0.06289064
26	0xbd111dfa	-0.03542898
27	0x3d2c17bf	0.042014834
28	0x3ce5b733	0.028041458
29	0x3d0430a7	0.03227296
30	0xbd12116b	-0.035661142
31	0xba532f9e	-0.0008056107
32	0xbd0380b8	-0.032105178
33	0xbd27efa2	-0.041000016
34	0x3c4a4f5b	0.012348021
35	0x3bc69b39	0.0060609845
36	0x3c7c5a1a	0.015402341
37	0x3cb10ed6	0.02161352
38	0xbc822ac0	-0.015889525
39	0xbce0695b	-0.027393987
40	0xbd394e91	-0.045240942
41	0x3d57c2cf	0.05267602
42	0x3d5b5106	0.053544067
43	0xbd072131	-0.03299064
44	0x3d445fd0	0.047942936
45	0xbd228f08	-0.039687186
46	0x3b1ff79e	0.0024409066
47	0x3d3184ea	0.043339647
48	0xbd3722b9	-0.04471085
49	0xbd2828d3	-0.041054558
50	0x3bdfb035	0.0068264254
51	0x3bfdd9d2	0.0077469135
52	0x3d01a2fc	0.031649575
53	0xbd604b54	-0.05475934
54	0x3d6de2b1	0.058077518
55	0xbc00a630	-0.007852122
56	0xbafd7cff	-0.001933962
57	0xbceca561	-0.028887453
58	0xbbf84a06	-0.0075771837
59	0xbcbb73d4	-0.02288238
60	0x3c65ff6d	0.014037949
61	0x3ab09a85	0.0013473785
62	0x3af0f959	0.0018384858
63	0xbb9ac352	-0.004722991

weight f4 [10, 64]
0	0x3dbcf476	0.09226315
1	0x3d265319	0.04060659
2	0xbc10a694	-0.008828778
3	0x3d042c08	0.032268554
4	0xbe533ce6	-0.206287
5	0x3cc5bcb0	0.024137825
6	0xbe3149f0	-0.17313361
7	0xbdc0ce76	-0.09414379
8	0x3de9c943	0.11415341
9	0xbe0a3369	-0.13496174
10	0xbe5db372	-0.21650484
11	0x3db9ecce	0.0907837
12	0xbd5ca5d1	-0.053869072
13	0x3da61617	0.08109682
14	0x3d48a1b0	0.048982322
15	0x3e66da9f	0.22544335
16	0x3df2af64	0.11849859
17	0xbdac1cbc	-0.08403918
18	0xbd14c28f	-0.036318358
19	0x3d27f5ce	0.041005902
20	0xbdeb8ae1	-0.115010984
21	0x3e2d174d	0.1690342
22	0xbe127f78	-0.14306438
23	0x3c97db5d	0.018537218
24	0xbdc1c113	-0.09460654
25	0xbe87bae8	-0.26509786
26	0x3e1df2f2	0.15424708
27	0xbdf159e7	-0.11784726
28	0xbe0abfc6	-0.13549718
29	0xbe15cc67	-0.14628755
30	0x3e448242	0.19190314
31	0xbe6b6382	-0.22987178
32	0x3d53dcc9	0.05172423
33	0x3df2b942	0.118517414
34	0x3d8e45d9	0.06946916
35	0x3d024a30	0.031809032
36	0xbd52142e	-0.051288776
37	0x3e02738e	0.12739393
38	0xbc801f2b	-0.015639862
39	0x3ca54c38	0.020177945
40	0x3e4601d7	0.1933664
41	0xbda383cd	-0.079841234
42	0xbc96312f	-0.018334
43	0x3d4c05e2	0.049810298
44	0xbe3193fc	-0.17341608
45	0xbe634356	-0.22193655
46	0x3da4f0c1	0.08053733
47	0xbc9ec974	-0.01938317
48	0x3daf9f93	0.08575358
49	0x3de39169	0.11111719
50	0xb8d81874	-0.000103042374
51	0xbdf071f0	-0.11740482
52	0x3bcffc0b	0.0063471845
53	0xbbfca073	-0.0077095567
54	0xbdec4115	-0.11535851
55	0x3dbd81b6	0.09253256
56	0xbd969ec3	-0.073545
57	0xbcc58cff	-0.024115084
58	0xbd623da2	-0.05523456
59	0x3e50dc2c	0.20396489
60	0xbe42aa35	-0.19010241
61	0xbded6904	-0.11592296
62	0xbda11247	-0.07864814
63	0x3d55c12f	0.052186187
64	0xbe521724	-0.2051664
65	0x3de19aca	0.11015852
66	0x3e92a7b4	0.28643572
67	0xbe519523	-0.20467047
68	0x3dd88e00	0.10573959
69	0xbe80b37b	-0.25136933
70	0xbda49ffd	-0.08038328
71	0xbe0dc487	-0.138445
72	0xbda76af0	-0.081746936
73	0x3dc224db	0.09479686
74	0xbdc47aaa	-0.09593709
75	0xbd7c06d7	-0.06152996
76	0x3e74b87a	0.23898497
77	0xbd377126	-0.04478564
78	0xbe201741	-0.1563387
79	0x3e137b7c	0.14402574
80	0xbcc12fc0	-0.02358234
81	0xbce4ea4b	-0.02794375
82	0xbcff966d	-0.031199658
83	0x3d6b59a5	0.05745854
84	0x3da14d4a	0.0787607
85	0xbe4b8ecc	-0.19878691
86	0x3d2c1567	0.0420126
87	0x3e613dea	0.21996275
88	0x3dcb2f4f	0.09921133
89	0x3def6dbe	0.116908535
90	0x3c45ab52	0.012064772
91	0xbe90b765	-0.2826492
92	0x3dc71234	0.09720269
93	0xbe23f4a9	-0.16011299
94	0x3e4c16b3	0.19930534
95	0xbe01f336	-0.12690434
96	0xbd92f96c	-0.0717648
97	0xbd0b894d	-0.034066487
98	0xbd400042	-0.046875246
99	0x3e228e32	0.15874556
100	0x3e37e4af	0.1795833
101	0x3c02f395	0.007992645
102	0xbdfe9562	-0.12430836
103	0xbdf5e571	-0.12006653
104	0x3db9c078	0.090699136
105	0xbca4e422	-0.020128313
106	0x3d8c0d88	0.068385184
107	0x3e944073	0.2895542
108	0xbdc4be9b	-0.096066676
109	0x3e646b8d	0.22306652
110	0xbcab737b	-0.020929089
111	0xbe0de767	-0.13857804
112	0xbdb8e0c0	-0.09027243
113	0xbe6631b3	-0.22479896
114	0xbdb534c8	-0.08847958
115	0x3dc5a38c	0.09650335
116	0x3dde258d	0.10847006
117	0x3e9d3b18	0.30709147
118	0xbb1b5857	-0.0023703778
119	0x3e42ab6e	0.19010708
120	0x3e882844	0.2659322
121	0xbd874b1c	-0.06606123
122	0x3d110584	0.03540565
123	0xbd342f0d	-0.043990184
124	0xbe13cfcd	-0.14434738
125	0xbd1048b6	-0.035225593
126	0x3e8b7296	0.2723586
127	0x3da4c51e	0.080454096
128	0x3e373231	0.1789024
129	0x3c408a8d	0.011751783
130	0xbdf200bb	-0.118165456
131	0xbd99522e	-0.07486378
132	0x3d1e52eb	0.038653295
133	0xbc8d4b52	-0.01724783
134	0xbcf26874	-0.029590823
135	0x3cd29456	0.025705498
136	0xbbbf03ba	-0.0058293017
137	0x3ddcb50d	0.1077672
138	0x3cca0ffe	0.024665829
139	0xbe00c539	-0.12575234
140	0xbdb9ec31	-0.09078253
141	0xbe14a8f1	-0.14517571
142	0xbd1f55dd	-0.038900245
143	0x3e1d9dfd	0.15392299
144	0xbc09e171	-0.008415566
145	0x3e05a7af	0.13052247
146	0xbe1ed6f3	-0.15511684
147	0xbe398bd0	-0.1811974
148	0xbe1c9802	-0.15292361
149	0x3d795229	0.06086937
150	0xbb015cee	-0.0019739228
151	0xbcdbe7bd	-0.0268439
152	0xbd2159de	-0.039392345
153	0xbe04bce8	-0.12962687
154	0xbd5fed6d	-0.054669786
155	0x3e2081a3	0.15674452
156	0x3e1a065a	0.15041485
157	0x3e59e3be	0.21278283
158	0x3ddfa93b	0.1092095
159	0xbde6ddac	-0.11272749
160	0xbc027c05	-0.007964139
161	0x3d35347f	0.044239517
162	0x3de49d85	0.11162857
163	0xbd7de59f	-0.061986562
164	0xbd1afc22	-0.03783811
165	0x3da051fb	0.078281365
166	0x3da51633	0.08060875
167	0xbd5ffbc0	-0.054683447
168	0x3d04ce9a	0.032423593
169	0x3e5104ae	0.20411941
170	0x3e1fe16c	0.15613335
171	0xbe7b373a	-0.24532786
172	0x3e17f108	0.1483804
173	0xbd7eb17a	-0.062180974
174	0xbe54caba	-0.20780459
175	0xbdc5f34b	-0.09665545
176	0xbcdf58ea	-0.027264077
177	0x3e85913a	0.26087362
178	0x3e44fb79	0.19236554
179	0x3de025ef	0.10944735
180	0x3dfb79cc	0.1227909
181	0xbe0b5589	-0.13606848
182	0xbe74a669	-0.23891605
183	0xbdc320de	-0.09527753
184	0xbe1caba4	-0.1529985
185	0x3e203450	0.15644956
186	0x3d5e3516	0.054249845
187	0x3dfdee74	0.12398997
188	0xbd25c5d3	-0.040471863
189	0x3e237e00	0.15966034
190	0x3d2f83f9	0.04285047
191	0xbe04ee05	-0.12981422
192	0x3dd35b18	0.10320109
193	0x3e26c35f	0.16285466
194	0xbdb3823e	-0.08765076
195	0xbc875a38	-0.016522512
196	0x3d891e55	0.066952385
197	0x3cb80e2b	0.022467693
198	0x3d33f161	0.04393137
199	0xbdbe0e52	-0.09280075
200	0xbdcff657	-0.101544075
201	0xbd2da80e	-0.042396598
202	0x3cc30ef4	0.023810841
203	0x3dacb18c	0.08432302
204	0xbdc7130a	-0.09720428
205	0x3bd31531	0.006441735
206	0x3de5db13	0.11223426
207	0xbdb77542	-0.08957912
208	0xbd510812	-0.051033087
209	0x3de0633e	0.10956429
210	0x3d483fb5	0.04888888
211	0x3e068833	0.13137893
212	0xbd32f1db	-0.043687683
213	0x3d37051b	0.044682603
214	0xbc6eea7a	-0.014582271
215	0xbe14b0f1	-0.14520623
216	0x3d8eb41f	0.06967949
217	0x3d99d65a	0.075115874
218	0xbdce6445	-0.10077719
219	0xbded5f11	-0.11590398
220	0x3dab0a67	0.083515935
221	0x3e67c6cc	0.22634429
222	0xbe1ba15a	-0.1519827
223	0x3bc8b0c3	0.0061245873
224	0x3da18ab1	0.078877814
225	0x3d841b74	0.06450549
226	0x3d937c14	0.072014004
227	0x3c717d12	0.014739292
228	0x3de41b63	0.11138036
229	0x3dd6387e	0.10459994
230	0xbda6f1e4	-0.08151606
231	0x3e00d24b	0.1258022
232	0x3b9935e4	0.0046756137
233	0x3d25dab2	0.040491767
234	0xbe0299f7	-0.12754045
235	0xbdd4982b	-0.10380586
236	0x3da26204	0.07928851
237	0x3c998788	0.018741384
238	0xbd2fbbc8	-0.04290369
239	0xbc527135	-0.0128443735
240	0x3debb95d	0.115099646
241	0xbc7fafb1	-0.015605853
242	0x3deba5c2	0.11506225
243	0xbe2ff44f	-0.1718304
244	0x3ca0fefb	0.019652834
245	0xbd92e9d5	-0.07173506
246	0x3ccaed45	0.024771342
247	0xbe2a6d4d	-0.16643257
248	0xbcdbe6dd	-0.026843483
249	0x3d58815b	0.052857738
250	0xbd8dd27e	-0.06924914
251	0x3cd1bebe	0.025603648
252	0x3de87ae1	0.11351562
253	0x3e32f5f1	0.17476632
254	0xbe5c5afd	-0.21519084
255	0x3d19593c	0.037438616

bias f4 [10]
0	0xbde4dd41	-0.11175013
1	0xbd8efc83	-0.069817565
2	0xbdb85536	-0.09000628
3	0x3dc23b48	0.09483963
4	0x3d7008c9	0.05860213
5	0xbdc8bea3	-0.09801986
6	0x3e4421cb	0.19153516
7	0xbd7e8b13	-0.06214435
8	0x3c382f5a	0.011241758
9	0xbdcce00c	-0.10003671
